cifar_net.pth (torch, 927431 bytes, 10 tensors)

conv1.weight f4 [16, 1, 3, 3]
000000 a9 e8 62 be 72 16 de bd 9b 5b c4 be a1 aa 31 be
       -0.22159065 -0.10844125 -0.3835114 -0.17350246
000010 6e 56 4e 3e b3 30 9f 3e 57 71 be 3e dc ae f3 3d
       0.20150158 0.31091842 0.37195846 0.11898586
000020 28 4b 10 3d 9f 86 c7 3c da f4 f9 3d a6 61 db 3e
       0.035227925 0.024356185 0.12204905 0.42847937
000030 2e ad 00 bd 6e 2f 58 be 05 de 43 be 1c 13 6a be
       -0.031415157 -0.21111843 -0.19127662 -0.22858852
000040 de 97 63 be e2 21 59 3e 12 9c af bd 12 56 4d 3d
       -0.22225901 0.21204332 -0.0857469 0.05013091
000050 44 9d 3d 3e 58 26 93 be 4f f4 9d 3e 91 8b ca 3d
       0.18517023 -0.2874019 0.30850455 0.098899014
000060 1c 62 87 be 34 17 94 be f0 7a 75 3d f3 b3 85 be
       -0.2644204 -0.28923953 0.059931695 -0.26113853
000070 f4 ad ad 3d a3 78 88 be 79 a2 ab bd 05 0b c0 3d
       0.084804446 -0.2665454 -0.083805986 0.09377102
000080 ca c4 ca 3d 22 e0 b0 be 97 d0 49 be b4 10 cb be
       0.09900816 -0.34546 -0.19708477 -0.3966118
000090 22 58 51 3e 28 fb 4c bd 90 dc 97 3c a5 4b aa bd
       0.20443776 -0.05004421 0.01853779 -0.08315209
0000a0 42 94 03 3e 7d 66 3f be 7a 62 9c be 73 1d c5 3e
       0.12849525 -0.1869144 -0.30543882 0.3849903
0000b0 eb b0 d2 3e 7d d1 86 be 82 20 c7 3e 26 2c 38 3e
       0.41150603 -0.26331702 0.3889199 0.17985591
0000c0 5e 36 6e 3e 21 e9 59 3d 03 ab 4e 3e 64 c0 4f 3e
       0.23262927 0.053200845 0.20182423 0.20288235
0000d0 22 11 c1 3e 89 c5 ad 3d e0 03 bd be fc 43 14 3e
       0.37708384 0.084849425 -0.3691702 0.14479059
0000e0 5d 49 b2 be 29 63 c9 3d 3e 14 7a be fe 81 5e be
       -0.34821597 0.098333664 -0.24421784 -0.21729276
0000f0 2c a9 b5 3d 3f c2 84 3e 1a 6e e0 3e 8a b8 55 be
       0.088701576 0.25929448 0.43834 -0.20871177
000100 2b ae c0 3d d3 b7 e3 bd c0 bb be bd eb b8 0c be
       0.0940822 -0.11119046 -0.09313154 -0.13742416
000110 ce ef 6b be 07 15 62 3e 5f b2 99 be 9f cb 7a be
       -0.23040697 0.22078334 -0.300189 -0.24491738
000120 c3 67 26 3d bb 70 24 3e 55 a6 91 be 0e 76 23 be
       0.0406263 0.16058628 -0.28447214 -0.15963003
000130 15 29 3c bd b7 75 08 bd 14 b8 60 bd 07 96 9a be
       -0.045937616 -0.033315387 -0.05486305 -0.30192587
000140 8e 84 e0 bd a7 58 ac be 41 20 60 3e a6 92 b1 be
       -0.10962783 -0.33661386 0.21887304 -0.34682196
000150 6b 75 3c be 0b de 64 bc 27 d5 64 3e ca 7e 91 be
       -0.18404166 -0.013968955 0.22346936 -0.28417045
000160 12 ec 7f be d0 e9 b8 be 73 c3 97 be 5e 32 cb bd
       -0.24992397 -0.36115885 -0.29641303 -0.09921716
000170 ad d3 fd 3d 28 10 8d bd f0 9e 9d be a5 6d ba be
       0.123938896 -0.06887847 -0.30785322 -0.36411777
000180 66 c6 90 be ec ea ad 3d 6c 49 0f 3d 89 5c 66 3e
       -0.28276366 0.084920734 0.03498213 0.22496237
000190 eb 2e 91 3d 13 58 97 3e 71 b7 4d be 00 24 bb 3e
       0.07089027 0.29559383 -0.20089509 0.36550903
0001a0 a1 cd 47 3e 20 d3 eb bd 81 c2 33 be b4 d3 93 bd
       0.19512035 -0.11514878 -0.17554666 -0.072181135
0001b0 18 b1 5d 3e d9 f9 3f 3e 3b e9 de 3d 55 8a 6c 3e
       0.21649587 0.18747653 0.10884329 0.23099644
0001c0 99 d6 92 be e9 62 ac be c0 08 7d 3c a0 88 69 3e
       -0.2867935 -0.33669212 0.015443981 0.22806025
0001d0 bc 2b f5 bc 0d fb 29 3e 2f fe 65 bd 3c 5d c0 be
       -0.02992808 0.16599675 -0.05615061 -0.37571132
0001e0 82 a0 da 3e 5f 7f 59 be 9f de 83 be 64 3a 6f bd
       0.42700583 -0.21239994 -0.25755784 -0.058405295
0001f0 ab 80 5a 3d 71 bd 8e be 41 c6 cd 3e 9b bb 22 be
       0.053345364 -0.27878907 0.40190318 -0.15891878
000200 05 ca c8 3e b3 6c 52 be f7 57 ac 3e 00 53 1c 3d
       0.3921663 -0.20549278 0.33660862 0.038165092
000210 c5 84 74 be 97 e2 c6 be fd 55 85 3d bf 71 03 3e
       -0.23878773 -0.3884475 0.065105416 0.1283636
000220 de cc 37 3e af 98 2a 3e 88 a3 1a 3e b7 2c 89 be
       0.17949244 0.16659807 0.15101445 -0.26791927
000230 9c 57 43 bc ea 81 bb 3d a5 dd 00 3d 1b 03 37 3e
       -0.011922743 0.091556385 0.031461377 0.17872278

conv1.bias f4 [16]
000000 44 a0 47 be 55 22 57 3e 1d f9 75 3e 90 9b 25 3e
       -0.1949473 0.2100919 0.2402081 0.16172624
000010 d8 1b 64 3e 16 5d 6c 3e 2e d7 2f 3d 49 05 98 be
       0.22276247 0.23082384 0.04292982 -0.29691532
000020 f0 12 99 bd b9 19 7f be 79 8a 77 bd 56 76 a7 bd
       -0.07474315 -0.24912156 -0.060434792 -0.08176868
000030 36 62 9f 3e 37 ef 19 bc ac 3a f3 3d c4 a5 0b be
       0.31129616 -0.009395412 0.11876425 -0.13637453

conv2.weight f4 [32, 16, 3, 3]
000000 c4 cc 0a 3d a2 f6 22 3e bf fe 21 3e f0 1f 1b bd
       0.033886686 0.15914395 0.15819834 -0.037872255
000010 2b d7 83 bd 9b f8 80 bd 14 2c b5 39 14 d4 e2 3c
       -0.064375244 -0.06297418 0.0003455585 0.027689017
000020 49 9d a2 3d 48 f6 b7 bd 57 3b 33 bd 73 b8 46 bd
       0.07940156 -0.08982521 -0.043757763 -0.04851575
000030 52 f7 13 bd 2b df a0 3b 0d e4 8a 3d b4 40 51 3b
       -0.036124535 0.004909416 0.067817785 0.0031929435
000040 08 85 5b bd 2a 34 b0 bd 35 72 26 3c 1e c8 8e bb
       -0.053593665 -0.086036995 0.010159065 -0.004357352
000050 c7 e9 27 3b d9 96 f2 bb 2b a0 d3 3c a6 b9 7f bd
       0.002562152 -0.0074032363 0.02583321 -0.062432908
000060 a3 23 a3 bc a5 a6 58 3d ea b5 8f 3d 37 46 b4 bd
       -0.019914454 0.0528933 0.07017119 -0.08802455
000070 45 f4 12 3d a8 fa 71 3d 49 bf 91 bd cd 05 04 3d
       0.035877485 0.059076935 -0.07116563 0.032232095
000080 71 3e f0 bb 61 1a 6a 3d 69 42 8a bd 0a 79 89 3d
       -0.0073316623 0.057154063 -0.06750948 0.067125395
000090 7e b9 47 bd 8c 4f a5 3d b9 ff 3b 3c 59 53 b8 3c
       -0.048760884 0.08071813 0.011474543 0.02250068
0000a0 31 09 2c 3d db 7e 82 3d 46 09 92 3b cc 8d bf 3c
       0.042000953 0.06371852 0.004456672 0.023383044
0000b0 6b f8 bb 3d 6d d3 ce 3d 82 1d db 3d 07 ad 92 3c
       0.09178241 0.1009892 0.106989875 0.017904771
0000c0 af a4 23 bc 30 cc d3 3c e2 97 e4 bc 67 e3 db bc
       -0.009987994 0.0258542 -0.027904455 -0.026841832
0000d0 cb 9f 11 3d ac d1 00 bc 10 37 a5 3d 98 9b c2 3d
       0.03555278 -0.00786249 0.08067143 0.095023334
0000e0 76 a9 f9 3a d8 00 44 3a 1c 42 c7 bd 4f ca 4a 3d
       0.0019047696 0.00074769324 -0.09729406 0.049509343
0000f0 bd 94 a0 bd 93 26 6f 3d a1 da 77 3c 8f 3b d8 bd
       -0.078408696 0.058386397 0.015127809 -0.10558235
000100 ff 4a 79 bd ae 01 84 bd 39 8a 71 bd 9b af af 3d
       -0.060862537 -0.06445633 -0.05896971 0.08578416
000110 a9 71 4b bd 04 f9 90 bd af ee 5e 3d 89 2e 26 3b
       -0.04966894 -0.07078746 0.054426845 0.0025357327
000120 d6 81 48 bc e3 3b 91 bd 56 56 28 3c 3f 57 9f bd
       -0.012237987 -0.070915006 0.01027449 -0.07780313
000130 ff 89 fd 3c e1 d2 a8 3d b2 a2 34 bd da ca 99 bd
       0.03094959 0.08243347 -0.04410047 -0.07509394
000140 22 37 65 bc 1f df bb bd 3f 85 cb bd fe 47 a4 bd
       -0.0139901955 -0.09173416 -0.09937524 -0.08021544
000150 61 89 0d bd cb 5b 18 bb e6 98 1d 3d 32 0f 0c bd
       -0.034554843 -0.0023248072 0.038475893 -0.03419418
000160 11 54 a7 3c 88 cf 5a 3b 27 64 49 3d d6 7b 53 3d
       0.020425828 0.0033387858 0.04916778 0.05163177
000170 ec f0 5a bd ba 9d 00 bd 6a a6 8b 3d 3a 22 80 3d
       -0.053452417 -0.03140042 0.0681885 0.06256528
000180 5a 9a ad 3d b5 4c 87 3b b1 2d 49 3d 33 8a 95 bd
       0.08476706 0.0041290172 0.04911584 -0.0730175
000190 78 01 c3 3d 35 9c 19 3e 4d da 19 3d 47 68 d3 bc
       0.095217645 0.15000995 0.037561703 -0.02580656
0001a0 52 85 d6 bb 27 be df 3d 37 f7 21 3c 6a 77 7a bd
       -0.0065466547 0.109249406 0.009885601 -0.06114904
0001b0 0b 10 bb bc ff fd 71 bd 21 ac 8d bd a1 5d 34 3d
       -0.022834798 -0.05908012 -0.069175966 0.044034604
0001c0 6d 5f 97 bb 2e 3b b0 bb e1 39 03 bd 40 4e 03 3c
       -0.00461953 -0.0053781485 -0.03203762 0.008014262
0001d0 7b a6 98 bc d2 ae 39 bd 06 69 43 ba 6a 07 bb bd
       -0.018634072 -0.045332737 -0.00074543094 -0.091322735
0001e0 65 d5 f8 ba d9 92 ea bc 04 68 65 3c 81 40 98 bc
       -0.0018984495 -0.028634476 0.01400185 -0.018585445
0001f0 85 81 79 bd bf 8b 45 bd da 90 bc bd 08 ab ef 3c
       -0.060914535 -0.048228975 -0.09207316 0.029256359
000200 37 6e a5 3d 1a 14 b4 bb fc 8c d3 3d 6f 00 38 3c
       0.080776624 -0.0054955604 0.10329625 0.011230572
000210 6f 12 98 3d 89 f1 58 3d 99 05 62 ba 18 27 9b bc
       0.07425391 0.05296472 -0.000862205 -0.01893954
000220 e2 c8 62 3d a6 2e 95 bc fa f3 04 3e 24 6b 92 3d
       0.055367358 -0.01821072 0.12983695 0.07149342
000230 0e bb bd bb 39 82 c4 bc 01 4f 5b bd c5 d2 6d 3d
       -0.005790121 -0.023987876 -0.05354214 0.058062334
000240 f1 04 d7 3c 6d 6f 7c 3d 83 a2 a9 3c 8e 6c dc bd
       0.026247473 0.0616297 0.020707374 -0.10762893
000250 43 7e 68 bd 52 53 20 be 78 67 1d bc 2a e8 11 bd
       -0.056761038 -0.15656784 -0.009607188 -0.0356218
000260 2d 10 d7 bd 4e 01 29 bd 5f 26 4f bc f6 ae 86 bd
       -0.10501132 -0.04126101 -0.012643426 -0.0657634
000270 cc 7c b6 3d 66 84 5a 3d 49 48 bc bd 6d 42 aa 3d
       0.08910522 0.05334892 -0.09193475 0.08313451
000280 88 f1 4e bd 4b 04 df bd 0f 09 f2 bc d6 24 05 3d
       -0.05052331 -0.10889491 -0.029545335 0.032505833
000290 7f 00 80 b9 4c 3d 46 bc 55 9b 83 3d ec e9 e4 bc
       -0.00024414432 -0.012099575 0.064261116 -0.027943574
0002a0 d8 e5 e7 3d 42 aa 57 bd 9d 82 b9 bc 41 a9 36 bd
       0.11323136 -0.052652605 -0.02264529 -0.044595007
0002b0 a7 d0 82 3d 30 ca ee bd 32 9d a2 3d 13 08 e5 bd
       0.063874535 -0.11659658 0.07940139 -0.11183181
0002c0 c3 e2 cd bd e8 05 a0 bd c7 16 b9 bd b7 70 05 bd
       -0.10053017 -0.078136265 -0.090375476 -0.032578196
0002d0 71 ba 6f bd 04 a1 99 3d 5d 91 b9 3c b2 33 27 3d
       -0.058527414 0.075014144 0.022652322 0.040820785
0002e0 33 8b 9e 3d 27 06 3a bd b3 39 e3 ba 01 a6 cd 3d
       0.07741394 -0.045416024 -0.0017335921 0.10041428
0002f0 42 85 4d 3c 83 3f a3 bd 51 70 96 3d df 0d 02 3e
       0.012543978 -0.07971098 0.073456414 0.12700604
000300 e1 69 f7 bc 88 0f ab 3d 11 c1 02 3e 10 0f 9b 3d
       -0.030201854 0.08352572 0.12768961 0.07571232
000310 10 3f f6 3d 30 44 74 3c 42 03 24 3d fc 23 b0 3d
       0.12023747 0.014908835 0.04004217 0.086006135
000320 4d 7f 0f be 9c 6c 59 3d 60 ec e9 bd 25 6a f7 bd
       -0.14013405 0.053082094 -0.11422038 -0.12080792
000330 69 4a 15 bd e4 2d 05 3d df 4e 72 3d 56 04 b7 bc
       -0.036447916 0.032514468 0.05915725 -0.022340935
000340 6f 47 95 3a ea 88 0f bd 0d 12 e3 3b 0a 74 cf bc
       0.0011389087 -0.03504268 0.006929642 -0.025323886
000350 d6 2b 30 3d 42 76 ae bd 5f f9 86 bc 19 67 fc bc
       0.043010555 -0.0851865 -0.016476331 -0.03081088
000360 49 c8 34 3d 2c ea 33 3d 0d e5 5e bd f0 43 50 3d
       0.04413632 0.043924496 -0.05441766 0.05084604
000370 9c 22 39 bd 27 7d d9 3c 3e 30 85 3d 37 7f 49 3b
       -0.04519902 0.026548935 0.06503342 0.0030745992
000380 36 7e 21 3d 75 cc 72 3d 61 74 bd bd aa 1d 02 3c
       0.039427005 0.059277017 -0.09250713 0.007941643
000390 67 f0 9f 3d 9c e7 02 be c9 b8 0c 3d 65 b8 98 bc
       0.07809525 -0.12783664 0.034355912 -0.018642614
0003a0 bb 33 79 bd e1 e2 6b bd 7d 34 7d 3d f6 ba c3 3b
       -0.06084035 -0.057589415 0.061817635 0.005973215
0003b0 85 30 83 bd 73 36 49 3d 93 a1 b8 bd 0b 72 58 3c
       -0.06405739 0.049124192 -0.09015193 0.013210784
0003c0 b0 73 86 3d b8 cf 22 be 4d 21 93 bd 6c 3c 9f bd
       0.065650344 -0.15899551 -0.07184086 -0.077751964
0003d0 8c 2b 7b 3a e2 28 f1 3d 1b 37 dc bd 9a 2c cd 3d
       0.0009581379 0.11775376 -0.10752698 0.10018273
0003e0 e2 2a d5 bd f1 83 3c bd c5 bc dd 3d e4 99 4a bd
       -0.1040857 -0.046024267 0.108270206 -0.049463168
0003f0 bd d6 83 bd cb 2b 99 bb d2 a7 06 3e 16 99 32 bd
       -0.064374425 -0.00467441 0.13149956 -0.043603025

conv2.bias f4 [32]
000000 4a b9 86 bd 13 06 57 bd 3b f4 ab bd df 4a bf 3c
       -0.0657831 -0.052496027 -0.08396193 0.023351131
000010 ef e9 83 3d 4e d8 b4 3d 59 f3 64 3d d4 17 9d 3d
       0.06441104 0.08830319 0.055896137 0.076705605
000020 84 51 54 bc 1a f1 13 3d b9 e0 11 bd 71 dc 6f bc
       -0.012958888 0.036118604 -0.035614703 -0.01463996
000030 8b 77 02 3d 3e db 8a bc 77 09 2a bc 08 ac 4d 39
       0.031852286 -0.016950246 -0.010378233 0.0001961441
000040 97 24 11 bd 4e d7 9f 3d 36 b0 ac bd 25 aa 94 bd
       -0.035435285 0.07804738 -0.08432047 -0.07259015
000050 f4 04 0a 3d ec a2 18 3d c2 67 f7 3a df da a6 3d
       0.03369613 0.03726475 0.0018875527 0.08147215
000060 1f ff 01 3d 39 25 3c 3d 2b 79 d4 3c 68 14 76 bc
       0.031737443 0.045933936 0.025936684 -0.015019514
000070 97 5e 79 bd 42 12 53 3c d1 f2 46 bc 88 ca 40 3c
       -0.060881224 0.012882771 -0.012142853 0.011767037

fc1.weight f4 [250, 800]
000000 88 43 f8 bb 96 b0 dc bc 95 fa c8 3c 94 6f f9 3c
       -0.0075764097 -0.026939671 0.02453355 0.030448712
000010 ae c3 d7 3c dd 5d d9 bc 62 60 1a 3d 96 17 98 3c
       0.026338425 -0.026534015 0.037689574 0.018565934
000020 4f 9e a0 bc 7a a2 55 bb 97 b0 32 3d 10 f8 f8 3b
       -0.019606737 -0.0032598064 0.04362544 0.0075979307
000030 f8 c9 0e 3c df 4a 12 b9 8d 7b 9d bb f5 c4 cc 3c
       0.008715145 -0.00013951537 -0.004805988 0.02499626
000040 a8 4d c9 bc 83 c2 23 bc 95 c1 1d 3d e3 22 0e 3d
       -0.024573162 -0.009995106 0.038514692 0.03470124
000050 b3 97 71 3d bf 68 69 3d a1 67 9d 3c d6 be 96 bc
       0.058982562 0.05698466 0.019214453 -0.018401545
000060 bb ed 99 bc 41 9b 87 bb 08 de 40 3b 4c d2 e5 3c
       -0.018790117 -0.0041383808 0.0029429216 0.028054379
000070 07 d3 be bc be c8 02 3c b8 99 ff 3c 05 e9 2a 3c
       -0.023293985 0.007982431 0.031201228 0.010431533
000080 2b 57 b3 bb 57 f4 df 3b c3 11 a2 bb 35 6f 2e bc
       -0.0054730377 0.0068345475 -0.004945965 -0.010646631
000090 2f 1f 74 bd ae 79 25 3d 75 df ef 3c c7 11 15 bd
       -0.05960005 0.040399246 0.029281357 -0.036393907
0000a0 9c 5f 74 3c 9e f8 cf 3c b3 ee ab 3d 51 9c 3a 3c
       0.014915373 0.025387105 0.08395138 0.011389808
0000b0 fe 67 85 bd 12 2d 4b 3b 73 c3 8f 3d e6 be 46 3d
       -0.065139756 0.0031002206 0.07019701 0.0485219
0000c0 e5 b9 7a bd d7 2a b9 bc 43 67 00 3d 55 8e 01 bd
       -0.06121244 -0.022603435 0.031348478 -0.03162988
0000d0 4a 8e ad bc 46 56 8b 3c e8 19 0a 3c fc 68 67 3c
       -0.021186013 0.017008912 0.008429028 0.014124151
0000e0 7f a4 04 3d ce 83 e1 3c 72 96 c1 3c 1e 05 e0 3c
       0.03238344 0.02752867 0.023631308 0.02734619
0000f0 be 40 52 bc 14 ad bf bc ab c9 0d 3d f0 47 44 bb
       -0.012832819 -0.02339796 0.034616154 -0.0029950105
000100 bf 7a cd bc 9e 9b a6 3c 00 ab fa 39 b8 90 92 bb
       -0.025082944 0.020337876 0.0004781112 -0.004472818
000110 22 cb e9 3c f2 8c 80 3c 8e d4 0b bc 76 17 ca 3c
       0.028539244 0.015692208 -0.008534564 0.02466939
000120 07 e5 06 bd 9a 80 ff 3b 40 6f f1 bc 77 88 fe 3c
       -0.03293326 0.007797313 -0.029471993 0.03107093
000130 04 d2 9a 3b 59 23 fb 3c 25 26 05 3d 46 69 25 3d
       0.004724743 0.030656504 0.03250708 0.0403836
000140 d9 1e ba 3c 80 d7 9b bc d5 41 e6 bb 84 63 62 3d
       0.022719787 -0.019023657 -0.0070268908 0.055270687
000150 6a ff c0 bc 16 4f c2 bc 15 53 31 3d 7a eb 0b 3d
       -0.02355929 -0.023719352 0.043292124 0.034160115
000160 ca 2f 6a 3c a1 0e 17 3d 08 5e f1 3c 7f a1 24 bc
       0.01429362 0.036879186 0.029463783 -0.010048269
000170 5e aa bf b9 bc 22 b2 3c 80 e6 05 3c d9 1a c4 3c
       -0.00036557292 0.021745078 0.008172631 0.023938583
000180 75 77 d3 3c 69 2c d4 3c 85 5f 90 bc 81 9d d6 bb
       0.025813797 0.025900083 -0.017623672 -0.0065495376
000190 fe 15 47 bc 55 5c 38 bb 74 47 f7 bc a7 ae 01 bd
       -0.012151239 -0.0028131206 -0.030185439 -0.031660702
0001a0 04 8b 5b 3d 99 7e f5 3b db 6b 68 3c d8 78 63 3d
       0.053599373 0.0074918983 0.014185871 0.055535167
0001b0 2f b7 bc 3b dc cb bc bb 2c dc cf bc 2c 0c 76 bd
       0.005759142 -0.0057616066 -0.02537354 -0.0600702
0001c0 a0 76 00 bd b7 c0 e4 bc 1c 9c 27 bd f0 d1 e9 bc
       -0.03136313 -0.027923925 -0.040920362 -0.028542489
0001d0 13 8a 1c 3b 41 b9 52 3d 2a 95 28 3c 25 ff d3 3c
       0.002388601 0.051446203 0.01028947 0.025878498
0001e0 37 3a b1 bc f6 e5 30 3b 6d 01 da 3c 47 fc 07 3c
       -0.021634204 0.0026992536 0.026612008 0.008299894
0001f0 1e b2 4d 3c 50 c3 8a bc 57 60 30 3d a3 1e 17 3d
       0.0125546735 -0.016938835 0.043060627 0.03689445
000200 1d a4 22 3d 5c 81 c4 3c 0c e3 b9 bc 68 bf ca 3c
       0.039707292 0.023987465 -0.022691272 0.024749473
000210 43 f9 52 3d 09 0e ea 3c e2 12 8e 3c 05 6a a1 ba
       0.051507246 0.028571146 0.017342988 -0.0012314921
000220 ab 3a 5f 3d c4 0c ae 3d 01 af 45 3c e8 56 bf 3c
       0.05449931 0.084985286 0.01206565 0.02335687
000230 36 e0 06 bc 2e 92 0c 3d a4 26 8c bc 83 ea 57 bd
       -0.008232167 0.034319095 -0.017108269 -0.052713882
000240 57 e1 db 3b 3d 72 89 bc c4 77 28 3d 1a a6 63 bd
       0.006710212 -0.016778106 0.041129842 -0.05557833
000250 24 8d b8 bb 07 bc 80 3c 26 a6 f6 38 32 53 51 3c
       -0.0056320596 0.015714658 0.00011761142 0.012776183
000260 15 e5 1c 3c 83 39 77 3c 27 8a 0e 3d bc 1c 15 3d
       0.009576102 0.015089395 0.03479972 0.036404356
000270 f5 9e 70 3c 67 4a 23 3d 22 3f b6 bc 6e b3 85 bc
       0.014686336 0.039865877 -0.022246901 -0.01632091
000280 fd d3 13 3d ca 6e 42 bc 49 c0 92 bd 50 1a 65 bc
       0.03609084 -0.0118672345 -0.07165582 -0.013983324
000290 dd 11 a6 b9 62 4a 8e 3c e5 ea c8 bc a6 28 dc 3c
       -0.00031675296 0.017369453 -0.024526069 0.026874851
0002a0 33 72 58 3d 98 b5 16 3b 4f b2 9f bc 92 a0 f0 bc
       0.052843284 0.0022996422 -0.019494204 -0.02937344
0002b0 45 6f 95 3c 3b 91 ae bc 0c 78 ec bc 56 2a 2c bc
       0.018241534 -0.021309486 -0.028865837 -0.010508141
0002c0 da 50 4c bb 7e 91 a1 bb 44 a1 a8 bb 59 35 90 bc
       -0.003117612 -0.004930674 -0.0051461775 -0.017603563
0002d0 cf 24 14 3d 6d 17 a7 bc bd c5 4f 3c e2 32 e9 b9
       0.036167916 -0.020396912 0.012681422 -0.00044479134
0002e0 63 85 b4 3c bf c6 80 bc a8 4f 94 bd 8b 0f 6d bc
       0.02203626 -0.01571977 -0.07241756 -0.014469038
0002f0 6e fd 0e bd 52 b9 8f 3b 34 af 23 3d 86 50 31 3d
       -0.034909658 0.0043861056 0.03996201 0.043289684
000300 4e 6c 67 3d 25 16 c9 3b d7 0b 13 3c 94 71 00 bb
       0.05649977 0.006136673 0.008974991 -0.0019598948
000310 0a 67 cc bc 6c f5 5d bc 11 e6 12 bd 52 c1 88 3a
       -0.024951477 -0.013547283 -0.03586394 0.001043359
000320 c4 1c 40 3b 80 43 85 3d 1c 7b a9 3c a7 88 a2 3c
       0.002931402 0.06507015 0.020688586 0.019840552
000330 d3 54 b5 3c 93 24 2e 3d 80 e1 7b 3d 53 f9 05 bd
       0.022135174 0.04251535 0.06149435 -0.032708477
000340 46 75 14 bc 7d 85 87 bc a8 c2 9f 3d 82 91 b5 3d
       -0.009061163 -0.016543144 0.078007996 0.08865644
000350 87 fc 20 3d dc ad 95 3c a3 a9 90 bc 56 b3 b0 bc
       0.03930333 0.01827138 -0.017659014 -0.021569889
000360 33 b8 0f bd 25 85 d4 bd 0f 8f 37 bd eb f0 19 3d
       -0.035087775 -0.10376958 -0.044814166 0.037583273
000370 dd a3 04 bb 59 93 97 bd 8e 2e f5 b9 6f 71 15 bc
       -0.0020239272 -0.07401151 -0.00046764727 -0.009121283
000380 b1 ed 72 3d 7f d6 48 3c 52 32 b3 bb 17 05 f8 3b
       0.05930871 0.012258171 -0.005468645 0.007568966
000390 0d 9e 20 bc c1 06 27 3d 5f da c0 3c cc b0 96 3c
       -0.009803307 0.040777925 0.023541627 0.01839485
0003a0 d8 2e 0a 3d f6 3f 59 bc 38 1d 90 3c 5b 48 33 bc
       0.03373608 -0.013259878 0.017592058 -0.010942544
0003b0 8c 77 2d bd 63 be e7 bb 4e 78 a2 bc b8 15 1c 3c
       -0.042350337 -0.0070722564 -0.019832756 0.0095266625
0003c0 98 5c c8 3c f3 f0 0b 3d 53 6d f3 3c 93 e1 05 3d
       0.024458215 0.034165334 0.029715216 0.032685827
0003d0 62 9e 5e 3d 0c d6 36 3c f9 aa e3 3b 12 50 fa bc
       0.054350264 0.011159431 0.0069478718 -0.030555759
0003e0 42 66 39 3b 09 c5 fc bb f4 ab a3 3c c9 12 19 3d
       0.002828971 -0.007713918 0.019979455 0.03737143
0003f0 5c 16 95 bb 72 f6 a3 bc d1 2e 50 bc 82 db 5e 3d
       -0.0045497846 -0.020014975 -0.012706474 0.054408558

fc1.bias f4 [250]
000000 2e c8 ab 3c 15 ac 1d 3d 00 79 bc bc 7d 4d e2 3a
       0.020969477 0.03849419 -0.023006916 0.0017265525
000010 dc 00 fd bb d1 30 e2 bc fe b4 a7 bc f6 cc 91 bc
       -0.0077210497 -0.027611168 -0.020472046 -0.017797928
000020 19 6f 79 3c 49 45 15 bd 4c 44 0c bc 21 b1 bc bc
       0.015224242 -0.03644303 -0.008561205 -0.02303368
000030 55 e9 7c 3c 6f 7a 2d bc 1b 0c 93 bb c7 d5 c5 3b
       0.01543649 -0.0105882725 -0.004487527 0.006037447
000040 84 bf ba 3b 40 c8 07 3d 9a c1 55 3b 56 20 0d 3d
       0.0056991 0.033149958 0.0032616616 0.034454666
000050 e2 64 98 bb 5d 65 a8 bc 18 04 84 3c 1c 56 15 3c
       -0.004650698 -0.020556146 0.016115233 0.009114768
000060 4e 1e 30 bb b2 0d 45 3c 8a fd 51 bb ec 6a bb 3c
       -0.0026873532 0.012027191 -0.003204199 0.022878133
000070 80 cb e2 3c 0e 11 bb 3c e2 bd e5 3b 7a 88 b4 3c
       0.027684927 0.02283528 0.007011161 0.022037733
000080 36 7f 1f 3d 1a ec ae bc 66 bf 9f bb 14 56 9a bc
       0.038939677 -0.021352816 -0.0048751114 -0.018839873
000090 28 0e 07 3d ea 1f f8 3c cf e9 d5 bc 2d a4 25 3d
       0.032972485 0.030288655 -0.026112465 0.040439773
0000a0 04 33 de bc 35 be 4a bc 7d b5 ec 3b 28 fc 40 3c
       -0.027123936 -0.01237445 0.0072237835 0.011778869
0000b0 2d 96 e7 ba f1 16 f0 3c f3 c0 08 bd 9e 24 1f 3d
       -0.0017668657 0.029307814 -0.033387136 0.03885328
0000c0 4e 47 1f 3b 3d e1 ad bc 5a b6 e0 bc 95 f5 02 3c
       0.0024303976 -0.021225566 -0.027430702 0.007993122
0000d0 2d 6e 15 bd d0 34 d4 3c 39 25 1f 3c 21 00 34 3d
       -0.036482025 0.02590409 0.009713464 0.043945435
0000e0 43 f1 b5 3c f6 fe 15 3d 5a 59 d4 3b af f4 c2 3c
       0.02220977 0.036620103 0.006480378 0.023798315
0000f0 69 0d b0 bb b3 d5 48 3d ec 8c 88 bc 94 69 33 3c
       -0.0053726924 0.049031924 -0.01666876 0.010950465
000100 50 55 19 bd c7 04 58 3b b6 99 25 3d b8 9d ee 39
       -0.037434876 0.0032961832 0.040429793 0.00045512407
000110 4b 93 ae bc aa f1 d4 3c 97 24 e4 3c f6 78 9f bb
       -0.02131047 0.02599414 0.027849479 -0.0048667146
000120 e2 07 75 3c e2 86 ac 3c 77 78 e4 39 ea 76 dc bc
       0.014955493 0.02106041 0.00043577302 -0.026912171
000130 2a 0c b0 3c 17 4b 7e 3c b0 b6 75 3c 4a e2 c2 bc
       0.021490175 0.0155208325 0.014997169 -0.023789544
000140 5a 2d 68 3c 45 2e 31 3c 55 a7 93 3c ff 16 2f 3d
       0.014170969 0.010814254 0.018024126 0.04274654
000150 21 18 06 bd 61 78 54 3c 6c 0b af 3c 9c cb 07 3d
       -0.032737855 0.012968154 0.021367751 0.03315316
000160 80 ea 13 bd 1a 1e 9c 3c 02 2e f3 b9 5a 56 ec 3c
       -0.03611231 0.019057322 -0.0004638285 0.02884977
000170 c9 11 30 3d 45 05 df ba 52 ea 7b 3c ce 26 8a bc
       0.04298571 -0.001701512 0.015375691 -0.016864207
000180 99 c6 0c bd 6b b9 c2 bb 75 01 9e 3b c5 28 7a bc
       -0.034369085 -0.0059425137 0.004821951 -0.015268509
000190 ab 97 98 bc 3e cc 06 bd 1e cd 6d 3c e0 d8 1b 3d
       -0.018627008 -0.032909624 0.014514236 0.038048625
0001a0 d7 0f 55 bb 6e 33 aa 3c a6 f1 d1 bc a6 f5 a8 bc
       -0.0032510662 0.020776477 -0.025627922 -0.020624947
0001b0 18 a0 97 3c 48 a6 6d bc f4 61 ca 3c 55 06 0f bd
       0.018508956 -0.014504977 0.02470491 -0.034918148
0001c0 0f 1c ef 3c 96 23 15 bc 03 86 e5 bc 42 fe 24 3c
       0.029188184 -0.009102723 -0.028018003 0.010070385
0001d0 bb 3b ec 3b 03 dd 1b 3c dd c2 0e bd 79 d3 3e bd
       0.007209269 0.0095131425 -0.034853805 -0.046588395
0001e0 db 40 2a 3c 73 19 85 3c 86 b5 2e bd c3 49 60 bc
       0.010391439 0.016247487 -0.042653583 -0.013689461
0001f0 e4 cd e8 bb 2e cb 47 3c 6e 37 20 bc 86 d8 10 3a
       -0.007104622 0.012194438 -0.0097788405 0.00055254286
000200 d7 db da 3c bc 12 f4 bb 52 0f 23 bc f5 75 1f bd
       0.026716156 -0.0074485224 -0.009952383 -0.038930852
000210 b1 86 35 bd b4 85 d8 3c f5 b1 a4 bc 78 3f c9 3c
       -0.044317905 0.026430942 -0.020104388 0.024566397
000220 3d cb 9c bc e1 e8 a8 3c 28 1b 92 bb c1 78 01 bd
       -0.01913988 0.020618858 -0.0044588037 -0.0316093
000230 d1 af b4 bc e9 ee e6 bc 2b 0d d1 3b 7a ab 62 bc
       -0.022056492 -0.028190093 0.0063797436 -0.0138348285
000240 09 cb e6 3c 75 25 22 bd e4 76 b3 3c cf aa 0c 3d
       0.028172987 -0.039586503 0.021907277 0.034342583
000250 ff 9b c2 3b bb 14 ba 3c fb ed 97 3b 20 e4 af 3c
       0.0059390063 0.022714963 0.004636524 0.021471083
000260 b0 ac e3 3c cd 39 18 bc d8 88 0f ba eb cd 16 3d
       0.027792305 -0.0092911245 -0.00054754084 0.036817472
000270 1a ce 04 3d 2a 6f fc 3c c7 56 b6 bb 5c dd 31 3c
       0.032423116 0.030814726 -0.005564544 0.010855999
000280 f6 13 23 3d a0 26 af bc 26 01 98 3a 32 0a f9 3c
       0.039813958 -0.021380723 0.0011597022 0.03040037
000290 2e 93 dd 3c c8 37 cc 3c 4c 05 bc bc c9 e1 7c 3c
       0.02704772 0.024928942 -0.022951744 0.015434691
0002a0 03 b7 b4 3b b0 50 f9 bc d7 a4 3e bc 2a 14 e5 bb
       0.0055149808 -0.030433983 -0.011635981 -0.006990929
0002b0 53 c2 99 bc 98 ad c7 3c 12 51 34 bc 9b b2 08 3c
       -0.018769419 0.024374768 -0.011005657 0.008343364
0002c0 b7 68 b1 3c 38 1d 9b 3c f5 23 d8 bc 0e c4 04 3c
       0.021656377 0.018934831 -0.026384333 0.008103384
0002d0 94 93 e8 3b ad ce 41 bb ab 7d 7e 3c 70 bc fc 3c
       0.007097671 -0.0029572651 0.015532891 0.030851573
0002e0 10 ed 7a bc 2d 5c a6 bc a7 e0 69 bc 3e 0a 78 3c
       -0.015315309 -0.020307625 -0.014274753 0.015139161
0002f0 0b 28 68 3b 45 25 69 3c bc 58 24 ba 79 c0 64 3c
       0.0035424258 0.014230077 -0.0006269326 0.013961905
000300 5a c0 15 bd 58 51 8d 3b d7 37 25 bd 36 5c 38 3b
       -0.036560394 0.0043126754 -0.040336456 0.0028131134
000310 00 53 6c 3b 27 1c 48 bb 94 31 b1 bc a5 aa 14 bd
       0.0036060214 -0.0030534358 -0.021630086 -0.03629555
000320 ec 8b 12 bc 54 de 9e 3c 92 e6 b5 bc 9a d3 88 3c
       -0.008944493 0.019393124 -0.022204671 0.016702462
000330 3c 2d bc 3c 54 a1 c2 bb 2e 4e e1 bc ca fa 91 3c
       0.022970788 -0.005939642 -0.0275031 0.01781978
000340 97 12 1f 3d d3 f2 0b 3d 96 02 02 3a 53 0d f1 bc
       0.038836088 0.034167122 0.0004959492 -0.029425299
000350 7c 28 df 3a 13 cb a3 3c 33 57 6f 3b 7c e7 ff 3c
       0.0017025615 0.019994294 0.003652048 0.03123831
000360 e8 cc a7 bb b9 c3 0f 3d de 73 23 bb 96 eb 89 bb
       -0.0051208623 0.035098765 -0.0024940888 -0.0042089922
000370 fc 7d 45 3c 46 8d 4a bc 78 37 c9 3c 0f 14 32 bc
       0.012053963 -0.012362784 0.024562582 -0.01086904
000380 b5 46 1b bb 03 1e 62 bc cd 8f 03 bd 5b 4b f6 3b
       -0.0023693268 -0.013801101 -0.03211956 0.0075163073
000390 f2 24 0c 3d 22 dd 94 bb 74 95 8c bc 85 46 ec bc
       0.03421492 -0.0045429626 -0.017161109 -0.02884222
0003a0 50 02 57 3c 94 a1 94 bc cf f1 d1 3c 36 89 48 3c
       0.01312311 -0.018143453 0.025627999 0.012239745
0003b0 a9 21 22 3d 1d c2 9d 3c 27 30 ac 3c 39 a8 d6 3c
       0.039582882 0.0192576 0.021019055 0.026203262
0003c0 7f 6c 9f ba ff bf 06 bd 44 4e 65 3c 9a 41 71 3c
       -0.0012163072 -0.032897945 0.013995711 0.014725113
0003d0 f3 95 2f 3d 56 8e 03 3c 1e 9d 92 bc 07 7b 45 bc
       0.042867612 0.008029541 -0.017897185 -0.012053258
0003e0 3d 5b 18 bd 17 98 03 3d
       -0.037196387 0.032127466

fc2.weight f4 [100, 250]
000000 7b 32 41 bd 01 bb 79 bd be 19 51 3d 38 f6 8b bd
       -0.047167283 -0.060969356 0.05104994 -0.06834072
000010 03 b6 4f bd 46 1e 40 bc 7c cc b9 3c e4 7d 07 bd
       -0.05071069 -0.011725968 0.022680514 -0.033079043
000020 d1 08 21 bb 82 2f 66 bd 98 28 48 3d 78 92 07 bb
       -0.0024571905 -0.05619765 0.04886684 -0.0020686667
000030 28 58 ae ba f7 4f 82 bd b2 ad a9 bc 8e 2d 35 3d
       -0.0013301419 -0.06362908 -0.020712707 0.044232897
000040 e3 23 1d bd 7a 5e 48 3d e8 a6 aa 3c 25 94 8b bd
       -0.038364302 0.048918225 0.02083154 -0.06815366
000050 28 b4 b7 bc ea c4 32 bc 0d 6a d5 bb 90 fe e6 bc
       -0.022424772 -0.010911206 -0.0065128864 -0.028197557
000060 25 87 5e bd 61 79 f7 3c 58 95 53 3d a3 6c 0d 3d
       -0.054328103 0.030209245 0.051656097 0.034527432
000070 63 78 52 bd f0 d8 04 bd e8 8c 05 bc 47 0d 46 bd
       -0.05138434 -0.03243345 -0.00815127 -0.048352506
000080 ed 55 d8 3c 9a cb 70 bd 21 33 02 bb 5f 85 e1 3b
       0.02640816 -0.05878792 -0.00198669 0.006882354
000090 3f 5a 13 bd 53 a8 c4 3c f8 3e 08 3c 59 89 b2 3c
       -0.035974737 0.024006044 0.008315794 0.021794008
0000a0 b8 65 76 3c f9 17 dc bc 8e c6 47 3d 78 55 17 3d
       0.0150389 -0.0268669 0.04877334 0.036946744
0000b0 54 83 57 bd d7 63 0b bc 96 91 42 bd d5 40 06 3d
       -0.05261548 -0.00850769 -0.047502123 0.032776672
0000c0 c8 ea 6b bc 60 13 d3 bc 48 57 de 3c 7b 1a 27 3d
       -0.014399238 -0.025766075 0.027141228 0.040796738
0000d0 e4 d1 39 bd f0 93 8d bd 26 4c 1f bc b9 49 84 3b
       -0.045366183 -0.069129825 -0.009722745 0.0040371087
0000e0 e4 77 dd bc de 56 4f 3d 80 74 30 3d db 7a ff 3c
       -0.027034707 0.050619952 0.043079853 0.031186512
0000f0 7e e9 19 3d aa 99 9e bb e4 17 33 3d 39 ff 87 bb
       0.03757619 -0.0048400955 0.043723956 -0.004150298
000100 49 ca ef 3c 9e 37 66 bd 16 6b 1f 3d 13 f7 98 bb
       0.029271262 -0.056205384 0.038920484 -0.0046681254
000110 79 29 15 bd 48 c3 de bc 81 59 02 3d c9 c7 41 bd
       -0.036416505 -0.027192727 0.03182364 -0.04730967
000120 50 06 a1 3b 5f 2d 4a 3d 3f 96 cd 3c e4 0f a4 3c
       0.0049140826 0.049359675 0.025096057 0.020027108
000130 a7 96 b1 ba 2a 6c 15 3c 0f f0 d5 3c 0a cf 7e bd
       -0.0013548926 0.009120027 0.026115445 -0.062209167
000140 4d 7c a4 3c b7 10 d6 bc 20 41 85 bd 1b ae 54 bc
       0.020078802 -0.026131017 -0.06506562 -0.012980963
000150 f4 97 a9 3c ae 71 2d 3d e6 32 5f 3d 8c 60 3e 3d
       0.02070234 0.04234474 0.0544919 0.046478793
000160 1c 6e 5d 3d bd 07 ee 3c ec 59 32 3d c3 af e4 bc
       0.054060087 0.029056424 0.043542787 -0.027915841
000170 d0 a0 0a 3d 4f 9d 46 3d 7a df 12 bc d5 52 45 3d
       0.03384477 0.048489865 -0.008964414 0.048174698
000180 ab 26 f4 bc 52 3b 62 3d 86 2e 32 bc a2 c5 2f 3d
       -0.029803595 0.055232354 -0.01087535 0.042913087
000190 9b 15 3b bd e2 38 4b bd 2b 88 dc bc 6e d3 22 3d
       -0.0456749 -0.049614795 -0.026920399 0.039752416
0001a0 0c b0 ae 3c c7 bd 90 bd 42 30 94 bd 2c 6e 63 3c
       0.02132418 -0.07067447 -0.07235767 0.0138812475
0001b0 10 32 a4 3b 58 a1 a3 bc f0 b9 7d bd d5 8d b9 3c
       0.0050108507 -0.019974396 -0.061944902 0.022650639
0001c0 0d ec 1e bd 88 87 91 3c da e9 0b 3d 22 ea 63 3d
       -0.038799334 0.017764822 0.034158565 0.05564321
0001d0 a0 d8 7a 3c 6b 35 3b bd fa 9d 70 3d 66 d4 19 bd
       0.0153104365 -0.04570524 0.05874441 -0.037556075
0001e0 c7 d0 9f bc c2 f3 28 3d c0 11 5d 3d e4 e5 ed bc
       -0.019508732 0.04124809 0.053972006 -0.029040284
0001f0 7d 54 19 bd 1a fb ef bb c6 00 0e bd db aa 76 bd
       -0.03743409 -0.007323635 -0.034668706 -0.060221534
000200 34 b6 0f 3d fa 6c 0e 3d e9 4d 7e bd 75 80 f4 3c
       0.03508587 0.034771897 -0.06208602 0.02984641
000210 c0 cc 70 3d f8 6f d9 bb f9 c9 88 bd 24 c0 06 3d
       0.058789015 -0.006635662 -0.06679148 0.032898083
000220 34 3b 0d bd 05 4b 5a 3c 4c ec 28 3d 70 a9 21 bd
       -0.03448029 0.01332355 0.041240975 -0.03946823
000230 2a 5f 15 bd 3c 2e 4a bd 37 1a 92 bd 79 57 8d 3b
       -0.03646771 -0.0493605 -0.07133906 0.004313406
000240 6a 62 b7 bc 65 e5 5d bd 80 34 a9 bc 3a 47 15 3d
       -0.022385795 -0.054173846 -0.020654917 0.03644488
000250 3c d3 19 bc 1a b7 8a bc f8 c3 0d bb ac 8e 6a 3c
       -0.009388741 -0.016933013 -0.00216317 0.014316242
000260 74 5a 4f 3d f0 05 d6 bc 9d 5b 62 bd 30 5a ba 3b
       0.050623372 -0.026125878 -0.05526315 0.0056870207
000270 da 3e 3d bd 2b 94 77 bc 0e b0 32 3a 5e 98 8a bd
       -0.046202518 -0.01511101 0.00068163953 -0.06767343
000280 83 d9 15 bd 86 19 4e 3d c0 39 23 bd 0d d4 f2 bc
       -0.03658439 0.05031731 -0.039849997 -0.02964213
000290 65 65 2f bd 42 d9 ee 3c d3 9d 86 bd 06 8a 0d 3d
       -0.042821307 0.029156331 -0.06573071 0.034555458
0002a0 76 43 71 3d 6a 63 6e bd 83 db 58 bd e3 62 5a bd
       0.058902226 -0.058200277 -0.052943718 -0.053316962
0002b0 0b 31 54 3b 59 da 5b bc bd dc 3a 3d 6e d8 78 3b
       0.0032377865 -0.013418757 0.04562067 0.00379708
0002c0 7e b3 a8 3b be 44 eb bc b0 5f 7b bb ee d3 40 3d
       0.0051483503 -0.028719302 -0.0038356595 0.047077112
0002d0 50 21 e1 3c ab cc 60 3d 3d 4d f3 bb 94 1c db b9
       0.027481705 0.054882687 -0.007424979 -0.00041792227
0002e0 71 23 99 bc ff 12 2a bd e5 09 ff bc 00 24 27 3c
       -0.018693658 -0.041522022 -0.031132648 0.010201454
0002f0 a4 37 89 3a c3 c3 85 3a e0 36 10 bd 82 a4 1e 3d
       0.0010468853 0.0010205436 -0.035208583 0.038731106
000300 fb 28 42 3d 39 da 00 bd 62 36 28 3d e2 dd 62 bd
       0.047402363 -0.031458113 0.04106749 -0.055387385
000310 13 94 17 3d 0b 8b df 3c 95 1d 5c 3b 46 5e 5f 3d
       0.03700645 0.02728798 0.0033586968 0.054533266
000320 40 ab 99 bb fd c7 05 bc e0 12 7d bc 5c 87 76 3c
       -0.004689604 -0.008165357 -0.015446395 0.015046921
000330 44 8c 0f 3d 2a de 44 3d 75 4d 08 bd 61 4a b8 3c
       0.035045877 0.048063435 -0.033276994 0.022496404
000340 70 ba 30 3c 93 af 53 bd 99 74 f0 bb 7a c1 b4 bc
       0.010786638 -0.051681112 -0.0073381183 -0.022064913
000350 4c 99 64 bc f1 6d 4e 3b d8 98 a6 bb 2a 29 3e 3d
       -0.013952564 0.0031498636 -0.0050841384 0.046425976
000360 fc 7e db 3c cd 48 68 bb 44 7e b9 3c b6 b5 45 3d
       0.02679395 -0.0035443783 0.022643216 0.048268996
000370 84 45 22 bd 6c 3e 94 bd 7b ba 1c bc 97 29 bd bc
       -0.039617077 -0.072384685 -0.009565945 -0.02309112
000380 f3 7e e4 bc e9 63 74 bd 8d f4 3c bd 23 be 20 bc
       -0.027892565 -0.059665594 -0.04613166 -0.009810957
000390 29 ce 19 3d c0 8f de bc a0 5c 41 3d 38 ee d7 3c
       0.037550125 -0.027168155 0.047207475 0.026358709
0003a0 d0 5b 3f bd 64 2a 32 3d 68 00 b9 bc 00 1a 2b 3d
       -0.04671842 0.043497458 -0.022583202 0.041772842
0003b0 ba 2d 49 bd bb 10 c8 bc 94 c0 f6 3c 01 a0 d6 3c
       -0.049115874 -0.02442204 0.030121125 0.026199343
0003c0 66 b9 55 bd de 67 67 bd cb bc 25 bc 12 9a 59 bd
       -0.052178763 -0.05649554 -0.0101158125 -0.05312545
0003d0 a4 07 46 bd 05 11 38 3d ea 53 83 bd 1c ba 65 bd
       -0.04834713 0.044938106 -0.0641249 -0.05608569
0003e0 8d d5 3f bc 30 f5 69 bc fe 4e 02 3c d9 7f c8 3b
       -0.011708629 -0.014279649 0.0079534035 0.0061187563
0003f0 ef bd 8d 3d 43 67 e3 3c 44 3c d4 3c 7b fd 89 3d
       0.069209926 0.0277592 0.025907643 0.06737801

fc2.bias f4 [100]
000000 90 d1 7d 3c e0 c3 f0 3c 13 ef 64 bd 1f 15 c2 3b
       0.015491858 0.029390275 -0.05589206 0.005922928
000010 ef 9e 10 3c 9c 9c 70 3c 2c 0f 24 bd 54 91 32 bd
       0.008826955 0.014685776 -0.04005353 -0.043595627
000020 e1 29 64 3d 26 e6 eb 3c b8 31 cc bc 8c d9 f4 3a
       0.055704 0.028796267 -0.024926051 0.0018680557
000030 45 f5 4c 3c bb 72 6f 3d 20 e8 12 bc 06 8f 89 bc
       0.012509649 0.058459025 -0.008966476 -0.016791832
000040 8a 76 ad 3c c1 ee 43 3d 7e 96 ce 3c b2 78 23 3c
       0.021174688 0.047835115 0.025218245 0.0099775065
000050 21 19 14 bd 17 61 e6 3b 97 71 b4 bc 74 ef 88 bd
       -0.036156777 0.007030617 -0.02202682 -0.06686297
000060 d3 31 05 3d 47 99 63 3d 07 d3 e6 3c 15 d5 4a bd
       0.03251822 0.0555661 0.028176798 -0.049519617
000070 61 8e b4 3c 6b d8 e6 3c 93 2c 22 3d 7a a7 a8 3c
       0.022040548 0.028179368 0.03959329 0.020587672
000080 e0 d5 a8 bc 11 a6 76 3d 7a 48 7c bd 6e 31 d4 3b
       -0.020609796 0.060216967 -0.061592557 0.006475619
000090 c6 af 2d 3d 63 e2 5e 39 2f c6 79 3d 24 5d 29 3d
       0.04240396 0.00021255905 0.06098002 0.04134859
0000a0 62 03 ed bc da 16 09 3d af d0 8f 3d 83 e7 9f bc
       -0.028932277 0.03346906 0.07022225 -0.019519573
0000b0 28 a3 73 bc 12 5f 96 3d 97 5b 64 3d 92 61 1c 3d
       -0.014870442 0.07342352 0.05575141 0.038178988
0000c0 47 ea d1 bc 58 0c f8 b7 11 52 ba bc 0b 8c 39 bd
       -0.025624407 -2.9569652e-05 -0.02274421 -0.04529957
0000d0 94 0c 83 bd 20 6c e8 ba ee e7 1e 3d 9a ed 21 bd
       -0.063988835 -0.0017732419 0.038795404 -0.039533235
0000e0 37 81 87 bb da e0 57 3d 7d 00 01 bd d1 a5 be bc
       -0.0041352767 0.05270467 -0.031494606 -0.023272427
0000f0 0e fa 4e 3d 7b b5 ee bc 08 4c 47 bd aa c2 ca bc
       0.05053144 -0.029139271 -0.048656493 -0.024751026
000100 45 f3 36 3d ef 47 6b 3b e5 2a 4e bc af 74 41 3c
       0.044665594 0.003590103 -0.012583469 0.011807605
000110 82 0f 66 bd 40 a7 0c 3d d2 9d ee bc f8 39 61 3d
       -0.056167133 0.03433919 -0.029127989 0.054986924
000120 57 27 48 bd cf 24 a2 39 3e 9a 33 bc fb 01 8b 3d
       -0.048865642 0.00030926472 -0.010962067 0.06787487
000130 8f 07 a7 3c 70 d3 8c bd 62 e4 5e 3d 69 56 8b bd
       0.020389346 -0.06876266 0.05441702 -0.06803591
000140 d2 fc 9a 3d 1c 1d 21 3d 45 20 cf bc a1 93 0e 3d
       0.07567753 0.0393344 -0.025283942 0.03480876
000150 50 92 7d bd 40 8e 7e bd 55 e2 79 3c 33 4b 4d 3c
       -0.061907113 -0.06214738 0.015251716 0.012530136
000160 00 84 43 3d b4 aa 03 3c 5e 38 ab 3d b5 cb 0b bd
       0.047733307 0.008036304 0.083603606 -0.034129817
000170 2a 4e b3 bc 3f 4e 0f bd f5 a8 af 3c ed 44 85 bc
       -0.021887857 -0.03498673 0.02144287 -0.016268218
000180 a2 03 0f 3d a1 b4 25 bd fb 20 26 3d 0f 29 34 bd
       0.034915574 -0.040455464 0.040558796 -0.04398447

fc3.weight f4 [10, 100]
000000 3f 3d 2c bd dd 73 53 3d 5c 09 cc bd ad 1d d0 3c
       -0.042050596 0.051624168 -0.09962723 0.025404776
000010 66 df 26 bc 29 49 09 be d8 34 ef 3d 46 7e 5b 3d
       -0.010185098 -0.13406815 0.11680001 0.05358722
000020 6c bd 20 bd 42 3f 1d bd d2 ee 50 bd fd ca bb 3d
       -0.039243147 -0.038390405 -0.051009007 0.09169576
000030 cb 79 bb 3d d5 ea 85 3d 4e 1a 22 3d 0d 41 a3 bd
       0.091540895 0.06538931 0.039575867 -0.07971392
000040 35 bc 09 3d bd f1 1c be df 53 a6 bd a7 23 f7 3c
       0.033626754 -0.15326591 -0.08121466 0.030168368
000050 41 db b9 bd 00 93 28 3d 7b 94 04 3d 30 fb 85 3d
       -0.090750225 0.041155815 0.032368165 0.06542051
000060 f9 00 c4 bd e9 f1 7f 3c 7c ec be 3c 9d 35 a5 bd
       -0.09570498 0.015621641 0.023306124 -0.080668665
000070 f8 ae 7c bd e9 28 04 bc 59 87 d9 bb 40 65 e5 3d
       -0.0616903 -0.008066394 -0.006638449 0.112009525
000080 c3 d4 34 bc b4 95 39 bd 83 75 0f bd 91 2c c5 bd
       -0.0110370545 -0.045308784 -0.035024177 -0.09627641
000090 44 4b b5 bd d1 bf af 3d 04 ec ed bd a7 56 9e bd
       -0.088522464 0.08581508 -0.11617282 -0.077313714
0000a0 c8 fd f5 3a 2a b5 89 bd 23 2c 20 3d 8e fd 11 be
       0.0018767649 -0.067240074 0.039104592 -0.1425688
0000b0 a1 66 07 bd cf 5e e5 bc bd 5d 85 bd 0e 4f 0c be
       -0.03305686 -0.02799931 -0.0651202 -0.13702032
0000c0 2c ad 24 bd 4c 61 40 3c b9 1e fd 3b 2e cc 9e 3a
       -0.040204212 0.011741947 0.0077246097 0.0012115294
0000d0 9c 42 b9 bd 9f 2d b2 bd 6f f1 cb bc ea 8a fb bd
       -0.09045908 -0.08700108 -0.024895398 -0.12282355
0000e0 98 c5 d8 3d 1e af 34 3d 86 83 9f 3d 89 3d 6c 3d
       0.10584563 0.044112317 0.07788758 0.057675872
0000f0 be 08 bc 3d f1 ff 18 bb 30 9e 19 be 70 e7 79 3c
       0.09181355 -0.0023345912 -0.1500175 0.015252933
000100 41 b1 0e be 95 88 e6 3c 03 d3 de 3d 98 b5 0a 3c
       -0.13934804 0.0281413 0.10880091 0.008466147
000110 2c 28 63 3d 72 43 ed 3d 42 0b 58 3c 54 71 b9 bd
       0.055458233 0.1158513 0.013186278 -0.09054819
000120 b8 4a d6 3d 6d d9 68 3d 15 e9 d0 bd 22 83 1a be
       0.1046347 0.05684798 -0.10200707 -0.15089086
000130 ba 6f 33 bd f7 72 93 bd f3 b2 25 3d 97 b9 7f bd
       -0.043807723 -0.07199662 0.040453862 -0.06243285
000140 dd 40 bb bb ba 4a 9c 3c 8c 87 11 bd cf 18 37 3d
       -0.0057145194 0.019078601 -0.03552966 0.044701394
000150 6a 4f cf bd 14 8b b1 bc b3 94 57 bd 87 6f 0e 3d
       -0.10122569 -0.021672763 -0.052632045 0.03477433
000160 f8 42 82 bd cf 22 65 bd 1c 26 f4 bd 64 e9 a3 3d
       -0.063604295 -0.0559414 -0.11921331 0.080035
000170 51 06 af 3d d1 db 9c 3d e0 00 c4 bd 86 cd 17 3d
       0.08546127 0.07659114 -0.095704794 0.037061237
000180 94 bd f6 bc 6f 18 0d bb 8c fa a7 3c f7 f6 ea 3b
       -0.030119695 -0.0021529456 0.020505212 0.007170554
000190 9d e2 4a bd e1 21 09 be 21 ce 8b 3d 70 cc 74 3d
       -0.04953252 -0.1339183 0.06826425 0.05976528
0001a0 7e 52 28 be 21 77 76 bd 6d 29 a3 bd 83 b1 9a 3d
       -0.16437718 -0.060172204 -0.07966886 0.07553389
0001b0 ef 53 31 3d 7f 8b 6e bb 3d fc 51 3c dd f4 dd bd
       0.043292936 -0.0036399064 0.012816486 -0.108377196
0001c0 05 f5 7d bd 51 f8 7f 3d f3 6f dc bc 6f 25 b5 3d
       -0.062001247 0.062492672 -0.02690885 0.088450305
0001d0 9c 05 e0 3d 61 33 96 3d 26 7a 00 bd 5e 01 15 be
       0.1093857 0.073340185 -0.03136649 -0.14551303
0001e0 3f 2f 3f 3d bd 1c fc bc 22 44 8f 3b 35 b6 31 bd
       0.046675917 -0.030775422 0.0043721357 -0.043386657
0001f0 d5 c4 1d bd ba 18 7e bd 7f c4 b0 3c 83 89 ba bd
       -0.03851779 -0.0620353 0.021578072 -0.091082595
000200 eb 7b 98 3c 22 8f ed bc 18 43 cc 3d 13 12 a0 bd
       0.018613776 -0.028998915 0.099737346 -0.078159474
000210 64 e5 8a 3c 7a e8 32 3d 56 4f d7 3d f4 35 d8 bc
       0.016955085 0.04367874 0.10513179 -0.026392914
000220 97 a3 d4 bd 9a b3 45 bb 05 ba d6 3b 47 4e a7 bd
       -0.10382765 -0.0030166865 0.006552937 -0.08169227
000230 05 85 9f ba b0 bd db 3d bb 3e 35 3d 0a 4e 03 3b
       -0.001217038 0.107295394 0.044249278 0.0020035529
000240 10 d6 3c bd 25 92 3d 3d e5 dc 66 bd 4f fc dd bd
       -0.046102583 0.046281952 -0.056363005 -0.1083914
000250 f6 dd 0b be 49 08 ad bd b1 09 d0 3d c1 35 dd 3c
       -0.1365889 -0.08448846 0.101580985 0.02700317
000260 0b 7b 0d 3d 30 dd b7 bd a5 29 a2 3c f8 89 16 bd
       0.03454117 -0.08977735 0.019795248 -0.03675267
000270 b6 48 88 bd 3a fe fb bd 14 79 26 bd 5b c2 01 bd
       -0.066544935 -0.12304349 -0.040642813 -0.031679492
000280 2a fe 1f be a6 3c 0f 3d 57 db 9e 3d 8f ad be bd
       -0.156243 0.03496995 0.077566795 -0.093104474
000290 00 2c c8 3d f1 5c 06 3c e7 ad 17 3c ca 04 c7 bd
       0.09774017 0.00820087 0.00925777 -0.0971771
0002a0 26 eb 87 bc f4 fb e3 3d a9 87 b6 3d 68 e9 e2 3c
       -0.01659162 0.111320406 0.08912594 0.027699187
0002b0 2a 81 7e bb d8 15 99 bc c8 b8 f4 3d 2a ac 21 3d
       -0.0038834312 -0.018687174 0.11949307 0.03947083
0002c0 04 09 e6 bc bc 62 e3 3c 2d 05 eb 3d 0a e8 25 bd
       -0.02808047 0.027757041 0.114755966 -0.040504493
0002d0 48 22 0d be e5 1f d2 bd 44 80 ac 3d 81 ea 7a 3c
       -0.13782609 -0.1025999 0.08422902 0.015314699
0002e0 84 66 71 3d 62 b4 a1 3c 73 6b 20 bd ac ad ca bd
       0.058935657 0.019739334 -0.03916497 -0.098964065
0002f0 e5 42 ce 3b 52 64 ba 3c d1 09 0c 3e a3 dd 97 3d
       0.0062945955 0.022752915 0.1367562 0.07415321
000300 48 97 f0 bc 22 b6 00 be 19 80 c7 3d f2 ef 5e 3d
       -0.029369012 -0.12569478 0.097412296 0.05442805
000310 a1 44 1f bd df e9 d2 3c cd ac 85 bd e0 1d 9e bd
       -0.03888381 0.025746284 -0.065271 -0.07720542
000320 55 8c ee bc f6 6d 85 3c 45 3b ab 3d a6 4c 84 bd
       -0.02911965 0.016287785 0.08360914 -0.06459932
000330 f5 77 80 3d 02 79 e9 3d fe da 1f 3d cf 14 bd 3d
       0.0627288 0.114000335 0.039027207 0.092324845
000340 1a 60 03 be b2 36 b9 3c 9d 0b cc bd 03 5b e2 3d
       -0.12829629 0.022609089 -0.099631526 0.11052515
000350 e9 60 e2 3d d9 77 97 bc 15 fd af bd 78 ae 9a 39
       0.110536404 -0.018489765 -0.085931934 0.00029503158
000360 bb f4 8b bd 4f 8b 0a 3d 6e 58 a7 bc 79 87 bf bd
       -0.06833788 0.03382426 -0.020427909 -0.09352011
000370 e8 6e e6 bd e0 67 b0 bd 40 b2 92 3d 0a 21 b1 3d
       -0.112516224 -0.086135626 0.07162905 0.0864888
000380 ec 97 72 3c fa 6a d0 bd 99 9e 96 3d a5 e6 81 bb
       0.014806729 -0.10176654 0.07354469 -0.0039642625
000390 36 1c 32 bc 69 a7 86 3d 16 2c 05 3c 87 50 28 bd
       -0.010870984 0.065749 0.008128187 -0.04109242
0003a0 a2 8d a9 bd 1e e2 08 3d 14 e7 08 bd fd ad 27 3d
       -0.082789674 0.033418767 -0.0334235 0.040937413
0003b0 9d bd c1 bd 96 d6 5c bc 5f 08 9a 3d c4 8e 3f bc
       -0.09459994 -0.013478896 0.07521128 -0.011691753
0003c0 37 10 ca 3d 36 e0 05 bc fd 9d 50 3d f1 da 74 bd
       0.09866374 -0.008171132 0.05093192 -0.05977911
0003d0 0b 80 cd bc 6e 57 7d bd a3 ea 88 3d 14 6d f2 3b
       -0.02508547 -0.061850958 0.066853784 0.007398257
0003e0 d5 76 f4 3c 1b ce 42 3c d1 f1 56 bd c0 ce c8 3d
       0.02984182 0.01188996 -0.052476708 0.098050594
0003f0 f3 c4 e9 3c 5d 00 9e 3d 80 5d ad bd a6 b0 c3 bd
       0.028536296 0.07714913 -0.08465099 -0.095551774

fc3.bias f4 [10]
000000 ee c3 d4 bc 06 4d 9f 3d 09 98 44 bc 25 06 38 3d
       -0.025972333 0.07778363 -0.011999139 0.044927735
000010 86 c7 3f bd 0f 1b 51 3d f6 75 09 b9 55 62 a8 bd
       -0.04682114 0.051051196 -0.00013109282 -0.0822188
000020 b8 3d 9c 3d a9 7b a3 3d
       0.076289594 0.07982571
